model/sleep_model.pt (torch, 350896 bytes, 10 tensors)

gru.weight_ih_l0 f4 [192, 256]
000000 70 75 72 bd 3e 73 09 3c a3 4a 6f bd b3 bf 6b 3d
       -0.05919403 0.008389292 -0.05842079 0.057555865
000010 4f 13 48 bd a4 46 77 3c e1 c0 9b 3c 37 a0 cc 3c
       -0.04884654 0.015092526 0.01901287 0.02497874
000020 7c 4d 46 3d e5 d8 53 ba 4d 68 6f 3d 29 50 4f 3d
       0.04841374 -0.0008081331 0.05844908 0.050613556
000030 dd 25 da bc e1 59 3b bd 55 c6 ba 3c bf 53 47 bd
       -0.026629383 -0.045740012 0.02279965 -0.04866385
000040 0a a9 43 3d 1b cc 4b 3d 0c 1c 10 bd 60 c2 d0 3c
       0.04776863 0.049755197 -0.035182998 0.02548331
000050 29 a4 7c bd 71 11 c2 bb 38 1a 93 bc 2e 3c 42 bd
       -0.061679993 -0.0059224893 -0.017956838 -0.047420673
000060 ca b2 7d bc 29 ae 2d 3d 60 5a 10 bd 74 fa 00 3b
       -0.015484521 0.04240242 -0.03524244 0.0019680532
000070 fd 56 42 bd 2b 7d 24 bc 86 b0 8e bc 76 3e 4a 3d
       -0.04744624 -0.010039608 -0.017418157 0.049375974
000080 c0 6d 3f 3d 8f e0 11 3d e9 e0 49 bd b7 d7 60 bc
       0.046735525 0.035614546 -0.049286757 -0.013723305
000090 80 58 fa bc 6f 02 4f 3c 27 54 11 bc 4e ef 78 bd
       -0.030559778 0.012634858 -0.008870161 -0.060775094
0000a0 60 aa 29 3d a0 d3 9c 3c 23 25 ac 3c 30 37 bd 3b
       0.041422248 0.01914388 0.021013802 0.005774401
0000b0 14 40 7a 3b 30 a3 21 3d 4b 77 4d bc 35 1a 35 bd
       0.0038185166 0.03946227 -0.012540649 -0.044214446
0000c0 f5 49 ee bb 29 8e cf 3c cd 8f 00 3c 6f a9 0f 3c
       -0.007272 0.025336342 0.007846785 0.008768423
0000d0 ae 52 a2 bc a4 db 4d bd 61 25 5a bd ae 2a 3a bd
       -0.019814815 -0.050258294 -0.053258304 -0.04545086
0000e0 62 7b 21 3d 09 61 56 3d 82 f8 01 3d c1 24 63 bd
       0.039424308 0.052338634 0.031731136 -0.055454973
0000f0 dd b7 e5 bc 2e c0 98 3b 75 46 fc bc 9e 51 71 3d
       -0.028041774 0.0046615815 -0.030795315 0.058915727
000100 d2 05 31 bc 28 c1 d7 3b 62 13 6e 3d 8a d9 bf 3a
       -0.01080461 0.0065843053 0.058123954 0.0014636975
000110 ab 9a 0b bd a1 c0 49 3d f3 69 0e 3d 00 e5 64 3d
       -0.03408305 0.04925597 0.03476901 0.055882454
000120 55 fc 0a bd f7 ab 5b bd 6b 0f 6f 3d e0 21 95 bc
       -0.03393205 -0.053630795 0.058364313 -0.01820463
000130 3a 96 fe bc 8f d7 2d bd 55 41 d2 bc bf 29 53 bd
       -0.031077493 -0.0424419 -0.025665918 -0.051553484
000140 db 1a 55 bc 14 c5 69 bd aa df f8 3c 0c b5 80 bc
       -0.013006891 -0.057072714 0.030380089 -0.01571133
000150 f8 5c 5e bd c1 81 60 bc f6 4f 31 3d c6 b5 20 bd
       -0.05428788 -0.013702811 0.043289147 -0.039235853
000160 d6 a2 04 bd e5 e5 1b bd b0 f8 6d bb 40 ed 59 3d
       -0.032381855 -0.03806104 -0.003631156 0.053204775
000170 40 d3 26 3d fa b4 94 3c c5 ea 86 3c f5 2a 42 bd
       0.040728807 0.018152703 0.016469369 -0.04740425
000180 2b 21 05 3d 44 03 28 3d 59 24 14 3d e4 4d 41 b9
       0.032502335 0.04101874 0.036167476 -0.00018434931
000190 45 80 4c 3d 12 26 54 bd b3 5a e0 bc 24 40 44 3d
       0.049927015 -0.05179412 -0.027386999 0.04791273
0001a0 6a 26 33 bd f0 2c 70 bd 58 74 10 3d 08 aa 4c bc
       -0.043737806 -0.058636606 0.035267204 -0.0124917105
0001b0 a2 12 4a 3d bb c2 72 bd 56 0d ea bc a5 4d db bb
       0.049334176 -0.05926774 -0.028570812 -0.0066926056
0001c0 a9 e9 14 bd fd d4 18 3d 4e b9 54 3d 0f 43 18 bd
       -0.03635565 0.037312496 0.051934533 -0.037173327
0001d0 6e 17 7f bd 09 47 d9 bc c2 7e ed bc 4f 58 14 bc
       -0.062278204 -0.02652313 -0.028991107 -0.009054258
0001e0 54 36 6e 3d ef 6b 6b bd 12 32 80 bd 93 b1 9c 3c
       0.05815728 -0.05747598 -0.0625955 0.019127643
0001f0 c4 5c a1 bc 04 5c 6c bd 7f 45 06 bb 24 a9 4d bc
       -0.019697554 -0.05770494 -0.00204882 -0.012552533
000200 8f 57 a3 3b d0 f8 3a bd 53 7d 80 bd 11 2e 2a bd
       0.004984803 -0.045647442 -0.06273904 -0.04154784
000210 f7 50 fb bc fb 48 6c bd b5 e3 97 bc 0f 38 70 3d
       -0.030678255 -0.057686787 -0.018541196 0.05864721
000220 e5 ef d3 3c a8 e6 65 bc ae 0a a3 bc 43 8d 37 bd
       0.025871227 -0.0140320435 -0.019902553 -0.044812452
000230 56 8e 21 bd 43 e0 c0 bc 61 a2 5f 3d d7 56 65 bd
       -0.039442383 -0.023544436 0.054598216 -0.05599102
000240 1f ff a3 3c a0 0d 48 3d 4c 50 61 3d 53 eb 6b 3d
       0.020019112 0.04884112 0.055008218 0.05759747
000250 5a 85 de 3c e2 63 35 3d 36 6e 8b 3c 20 1d 76 3d
       0.027163196 0.04428471 0.017020326 0.06008637
000260 2d b3 4c bd ee 5d 80 bb db 0c ef 3c 53 a7 e4 3c
       -0.049975563 -0.0039174473 0.029180935 0.027911818
000270 c8 1e 0a 3d 29 77 b2 3c b1 61 1e bc 90 d3 5f bd
       0.03372076 0.021785336 -0.009666846 -0.05464512
000280 bb e4 3b 3d 0b a4 92 bc c5 c6 95 3c ce d4 01 bc
       0.04587243 -0.017900487 0.018283257 -0.007924272
000290 a1 ef fc bc 01 45 6d 3d b2 f1 ff 3b d5 9c b9 3b
       -0.030875983 0.057927135 0.0078107947 0.005664448
0002a0 94 0a 1a 3d 86 f8 61 bc cf c6 02 bd 26 a8 8c 3c
       0.037607744 -0.013792163 -0.03192788 0.017170023
0002b0 ea 34 bb bc ff ae 04 bd 1a 8f f3 3b 01 e4 86 bc
       -0.02285238 -0.03239345 0.0074328305 -0.016466143
0002c0 32 35 53 bd 0a b2 11 3c 62 7d 92 3c 95 43 eb 3c
       -0.051564403 0.0088925455 0.017882053 0.028718749
0002d0 ec 61 26 3c c3 aa 91 3c d0 c5 30 bc 77 ce 7c bd
       0.010155182 0.01778162 -0.01078935 -0.061720338
0002e0 b4 e8 3b bc cf 66 03 bd 49 ff e2 bc 92 59 d8 bc
       -0.011469055 -0.032080468 -0.02770962 -0.026409898
0002f0 c8 34 29 bc 69 3d 16 3d c5 22 41 3c ca 34 f3 bc
       -0.010327525 0.03667966 0.011788075 -0.029688258
000300 e3 97 39 bc e0 59 14 3d 8a 76 67 bd e5 c3 09 bd
       -0.0113277165 0.036218524 -0.056509532 -0.033634085
000310 c0 e7 26 bc 24 3b 54 bc ee 1f 01 bd 49 19 d1 3c
       -0.010187089 -0.012953553 -0.03152459 0.025524752
000320 4e d3 21 3d d0 10 41 3d a0 63 51 3d 1d b5 69 bd
       0.039508156 0.047135174 0.0511204 -0.05705749
000330 40 44 4d bd 63 3b 77 bd 37 fa 71 bc 5d d4 23 3b
       -0.050113916 -0.06035937 -0.0147691285 0.0024998405
000340 e7 d8 94 3c 0f ed b5 3c 32 0d 09 bd 2a b6 ba ba
       0.018169833 0.022207765 -0.03345985 -0.0014244963
000350 39 d0 c7 3c 20 c3 23 bd 53 b0 11 bd 29 a0 38 3d
       0.02439128 -0.039981008 -0.035568547 0.045074616
000360 2d 74 56 3d 20 09 50 3c 25 44 45 bd ff 5d 17 3d
       0.052356888 0.012697488 -0.04816069 0.036954876
000370 27 ce 40 3d 9e 34 5a bc 87 57 59 bd e6 59 28 bd
       0.047071602 -0.013318209 -0.05306199 -0.04110136
000380 c7 1e 83 bc 3d 72 e5 3c d1 c1 1c bd 34 ad 63 3c
       -0.016005887 0.028008575 -0.038270775 0.013896275
000390 58 39 aa 3c c3 cb 9d 3c 7e a1 8b bc b4 eb 67 3d
       0.020779297 0.0192622 -0.017044779 0.05662127
0003a0 a9 4c f9 3b 77 98 38 bc 69 0a a8 bb b9 82 f2 3c
       0.0076080156 -0.011266819 -0.005128194 0.029603349
0003b0 4c ed f1 bc 20 c5 70 bd 29 aa db 3c 3e 18 45 3d
       -0.029532097 -0.058781743 0.026814537 0.048118822
0003c0 e9 04 60 3d 56 d8 2f 3c ff 5f 0c bc a4 10 7a bd
       0.054692183 0.010732731 -0.008567809 -0.061051026
0003d0 f7 75 00 bd 58 ab 00 bd ce 14 f4 3c 99 25 41 3d
       -0.0313625 -0.031413406 0.029795077 0.047154997
0003e0 8e 36 22 bd 61 d9 86 bc eb 8a fc 3c 7a 21 29 3d
       -0.03960281 -0.016461076 0.03082796 0.04129169
0003f0 d0 a9 7b 3c bf 47 a9 3c 36 08 7a bc 79 36 0c bd
       0.015360311 0.020664094 -0.015260747 -0.034231637

gru.weight_hh_l0 f4 [192, 64]
000000 0f 94 c2 3a 2b 29 99 bc 03 3d 63 bd 19 06 62 39
       0.001484515 -0.018696388 -0.055478107 0.00021555311
000010 48 fb 26 bc ad 58 30 bd 69 f8 b6 3b 04 35 3c bc
       -0.010191746 -0.043053318 0.005583812 -0.011487249
000020 82 60 4d bd cb 96 87 3c b8 8e 83 3c 35 08 3f bd
       -0.050140865 0.016551396 0.016059265 -0.046638686
000030 f4 54 ab 3b 4b aa 47 3d c2 ff 20 3b f4 79 25 3c
       0.005228633 0.04874639 0.0024566506 0.010099877
000040 da ca 7b bd ef 13 60 3d bf fd 2e 3d 93 8a f2 3c
       -0.06147275 0.05470651 0.04272246 0.029607093
000050 4c ec 6f 3d de c1 71 3d 6f f8 06 bd eb f8 33 3d
       0.05857496 0.059022777 -0.03295177 0.04393856
000060 a9 92 d9 39 41 79 bb 3b d0 92 50 3d b2 d4 46 bd
       0.00041498736 0.0057212417 0.05092126 -0.048542686
000070 d6 96 c7 bb d1 9e 55 3d 11 9d 92 3c 7a 6a 8f 3c
       -0.006090979 0.052153412 0.01789716 0.017506827
000080 14 07 14 3c e1 50 83 bc 41 f0 4a bd c4 ec 84 3b
       0.009034891 -0.016029777 -0.04954553 0.004056545
000090 7b ce b9 3a f5 63 66 bd 59 4a 6e bd 08 25 68 bd
       0.0014175916 -0.05624767 -0.058176372 -0.05667594
0000a0 5c f2 6e bd b5 2f 54 bd 6c 21 8a bc e9 a7 c8 3c
       -0.0583366 -0.05180331 -0.01686164 0.024494128
0000b0 02 ce 04 3b 70 8a 31 3d 53 c7 73 3d 25 85 2c bd
       0.0020264392 0.043344915 0.059516262 -0.042119164
0000c0 58 29 a2 3c 77 66 17 3d 44 8a 20 3d 0b 2a 60 bd
       0.019795105 0.036962952 0.03919436 -0.054727595
0000d0 3d 6b 6b 3d 7b 7f 22 bd 5e aa 5f 3d 24 2d 51 3d
       0.057475317 -0.039672356 0.054605834 0.05106844
0000e0 ca 59 42 bc 53 a0 69 ba b3 3c 36 3d 18 70 c9 3c
       -0.011862228 -0.0008912135 0.04449148 0.024589583
0000f0 3b ab 3b bc c3 6b 20 3d ce de 5c 3d 11 60 2d bd
       -0.011454399 0.03916527 0.05392342 -0.042327944
000100 8f 95 50 bd e0 7f c2 3c b2 16 ec bc 69 e3 23 bd
       -0.05092388 0.023742616 -0.028819416 -0.040011797
000110 1c c3 ff 3a dc f6 5d bd d9 0d 53 3c b8 8f 9f 3c
       0.0019513103 -0.0541905 0.0128817195 0.01947771
000120 48 04 65 3c 44 ca 40 bd a6 3a 08 3d a9 e6 a6 3b
       0.0139780715 -0.047067896 0.033259057 0.005093415
000130 c1 e0 a0 ba c1 da 60 bc 3f cb ae 3c 43 7e 58 bd
       -0.0012274013 -0.01372403 0.02133715 -0.052854788
000140 d4 50 54 bd 01 05 45 bd bd 68 aa 3b 07 a5 d4 bc
       -0.051834896 -0.048100475 0.005200474 -0.025957597
000150 1f 6b 97 bc ae 5c f6 bc f7 30 0c 3d 7d 62 32 bb
       -0.018483697 -0.03007349 0.034226384 -0.0027219348
000160 09 77 28 3d d0 f8 78 bd 44 fd 11 3c f3 18 06 bc
       0.041129146 -0.06078416 0.008910481 -0.008184659
000170 fe 0a 61 bd 70 8b db bc c9 4b 36 bd d9 5a 3f 3d
       -0.054942124 -0.026799887 -0.044505868 0.0467175
000180 61 ee 01 bd 6a 26 08 bd 66 17 45 bc 2b 46 82 bd
       -0.031721476 -0.03323976 -0.012029504 -0.0636104
000190 c0 31 15 bc 9c 9f 34 bd f6 48 5c bd 41 3a 4e 3d
       -0.0091061 -0.044097528 -0.05378052 0.050348524
0001a0 ea c3 47 bd a2 19 d9 bc bf df 56 3d e5 a3 21 3d
       -0.048770823 -0.02650148 0.052459475 0.039462943
0001b0 4a 3d 5a bd d8 a4 7f 3b fc 9a 47 bd f3 90 b0 bc
       -0.053281106 0.0039008167 -0.04873179 -0.021553492
0001c0 3c 02 c0 3c 35 1e 57 3d 2a df 7f bd 4c d9 fd 3c
       0.023438565 0.052519042 -0.062468685 0.030987404
0001d0 d9 8a 25 bd 21 b1 77 3d 6b 8b ca 3c 44 70 1d 3d
       -0.04041562 0.060471658 0.024724683 0.038437143
0001e0 33 62 71 bc 65 c5 72 3d 11 f4 6a 3d 84 dc 82 3b
       -0.014732885 0.05927028 0.057361666 0.0039935727
0001f0 44 8e bb 3c a0 39 43 bd 43 26 1d bc a3 1a 13 bd
       0.022894986 -0.047662377 -0.009591642 -0.035914075
000200 85 94 7d 3d c6 1e 28 bd de d2 e5 bc 8c 2b ba 3c
       0.061909217 -0.041044973 -0.02805465 0.022725843
000210 fb e9 0e bd f9 5e 03 3c 29 44 43 bd c1 3d f2 bc
       -0.03489111 0.008018249 -0.047672424 -0.029570462
000220 18 99 de bc 0e c5 5a 3d 0e e2 94 3c cd 3d 84 bd
       -0.02717261 0.053410582 0.018174198 -0.064571
000230 72 18 5f bd 66 4d ee bc 4c 0a 2d 39 63 4e ae 3c
       -0.054466672 -0.02908964 0.00016502402 0.021277612
000240 fc 87 06 bd 42 d5 25 bd 21 67 83 bd c1 47 5c 3d
       -0.03284453 -0.04048658 -0.06416155 0.053779367
000250 80 d5 8c 3c ca 3f 86 3d da 02 2e 3c 9d a7 02 ba
       0.017191648 0.065551355 0.010620797 -0.0004984083
000260 86 cd 34 3d 98 c8 f5 bc 75 cd 16 3d 03 88 46 3d
       0.044141315 -0.030002877 0.036817033 0.048469555
000270 44 53 fc bc 22 f9 1a bc eb 73 fb 3c 53 24 d5 38
       -0.030801423 -0.009458812 0.030694922 0.000101633974
000280 81 cc 8a bd ec 22 29 3d eb 10 2d bd cd a7 0a 3d
       -0.06777287 0.04129307 -0.042252462 0.033851434
000290 df 8e 14 3d 78 2f 64 bc 09 24 44 3d 8a c2 d1 bc
       0.036269065 -0.013927333 0.04788593 -0.025605459
0002a0 0c bb 15 3d 99 8c 34 bd 0d 85 4a bd 37 41 3b 3c
       0.036555335 -0.044079397 -0.049443293 0.011429123
0002b0 3f 2c fe 3c ea 58 2a bd 9c e5 01 bd 0a fa 60 bd
       0.031026958 -0.0415887 -0.031713113 -0.054925956
0002c0 d7 60 b9 3c 9e 54 05 3d e0 84 38 bd c2 cb 4e 3c
       0.022629185 0.0325514 -0.045048594 0.012621822
0002d0 f7 db 4d 3b de 08 57 3b ba b1 4d 3d 9a 56 83 bd
       0.0031411627 0.0032811682 0.05021832 -0.06413002
0002e0 5e a9 b5 bb 24 1c de ba 4c a3 4f bc 68 af 26 3a
       -0.005543872 -0.0016945642 -0.01267321 0.0006358535
0002f0 3f 0b 8b 3c a1 cd 7d bd ba a9 07 bd ce 1c 06 bd
       0.016973136 -0.06196368 -0.03312085 -0.032742314
000300 bf f4 3f bd 01 25 82 3b fb 39 11 3c a4 44 f9 3c
       -0.046864267 0.0039716964 0.008863921 0.030428238
000310 32 e5 67 bc ca b1 a0 3c 96 3a dc bc 2e c9 fb bc
       -0.0141537655 0.019616026 -0.026883405 -0.030735578
000320 3d 1a 2d 3d e6 72 b5 bc 65 1d e0 3b 4e c5 5a 3c
       0.04226135 -0.022149514 0.0068394416 0.013352705
000330 c3 ca fe 3c db b7 e6 3b d7 ec 81 3c 24 dd 28 bc
       0.031102544 0.0070409602 0.015860004 -0.01030663
000340 2f db 84 bb 86 a3 13 3d 7a 0a 38 bc 24 24 c6 3c
       -0.004054449 0.03604462 -0.011232967 0.024187155
000350 23 e4 5e 3d 6d 0e 84 bd 0c 27 80 3d fc 6e 6a 3d
       0.054416787 -0.06448064 0.062574476 0.05723475
000360 28 36 34 3d 4e 7a bd bb 77 22 60 bd e0 7f 51 bd
       0.04399696 -0.005782402 -0.05472037 -0.05114734
000370 bd a6 17 bd 6a 49 60 bd 5f 11 59 bd d2 9c 16 bd
       -0.03702425 -0.054757513 -0.052995082 -0.03677065
000380 7a f6 7e bc 9d 48 2a bd db 93 bf 3c 08 6a b1 3c
       -0.015561694 -0.041573156 0.023385933 0.021657005
000390 03 3c 44 bd ce f8 9f 3c d9 22 e4 bb c9 67 50 bc
       -0.047908794 0.019527819 -0.006962162 -0.012720057
0003a0 f3 c0 18 3d 68 93 2e 3d b3 f5 bb 3c 9b 01 94 bc
       0.037293386 0.042621046 0.022944307 -0.018067172
0003b0 39 13 1c bd 4d b1 60 bd db 8d 3b bd 2f 20 34 3d
       -0.03810427 -0.054856587 -0.04578958 0.043976005
0003c0 9f 0a 12 ba fe d5 82 bd 2c 05 e6 3c 92 bb 76 3d
       -0.00055710407 -0.06388472 0.028078638 0.060237475
0003d0 9b d5 d5 bc 6b 23 87 3d a5 97 65 3c 7e 51 4b bd
       -0.026102832 0.06598552 0.014013206 -0.049638264
0003e0 2c 98 fc 3c 38 dc 72 3d 77 36 6a 3c 58 f1 2f bd
       0.03083428 0.05929205 0.014295212 -0.042954773
0003f0 52 07 49 bd 0b 3b 14 bd d4 25 16 3d 01 ef 80 bd
       -0.049079247 -0.03618912 0.03665717 -0.062955864

gru.bias_ih_l0 f4 [192]
000000 d2 b6 ca 3c c4 4b 0c 3d db 3b cd bc 53 c1 be bc
       0.024745379 0.034251943 -0.025052955 -0.023285544
000010 7e b6 de bc ad 91 07 3d 84 2f e4 bc 6c 6b 90 3b
       -0.027186628 0.03309791 -0.027854688 0.004407337
000020 01 db bd bc c1 da 6f bc 6f e6 4e bc 66 97 22 3c
       -0.023175718 -0.014639557 -0.012628182 0.0099237915
000030 69 df 89 3c ac 37 68 3d 14 7d 70 3d 9f 9d f5 3c
       0.016830163 0.056693718 0.058713034 0.029982386
000040 dd 20 24 3c 05 55 36 bd e6 4c 0b 3d 2f 5f 1b 3d
       0.010017601 -0.044514675 0.034008883 0.03793257
000050 b2 19 ce 3c a6 a1 16 3d fb f0 f6 bc bc bf 0e 3d
       0.025158737 0.036775254 -0.030144205 0.03485082
000060 34 c0 21 bd 90 09 5a bd c3 ff 27 3c ee 54 6a 3d
       -0.03948994 -0.053231776 0.010253849 0.0572099
000070 5d 4b c4 bc 18 4a aa b9 bb 7a 08 3c ba bf 4a 3d
       -0.023961717 -0.0003248013 0.0083300425 0.04949925
000080 3c 78 60 bd 4b 86 ff bc 1f 75 44 3d a1 32 2e 3d
       -0.054802164 -0.031191966 0.047963258 0.042528752
000090 86 b2 b5 3c 1c f1 65 3d 99 67 d3 3c ab 31 18 bb
       0.022179853 0.056138143 0.025806235 -0.0023222964
0000a0 4d da 05 bd b7 ba 40 3b 6f 51 3e bd b2 fd c0 bb
       -0.03267889 0.0029408166 -0.04646438 -0.005889618
0000b0 66 a7 ca bc a8 cb 30 bd cc 65 9b 3c f2 32 e8 bc
       -0.024738025 -0.04316297 0.018969439 -0.028344605
0000c0 c4 15 15 3d 00 1e aa bc 03 b3 62 3d 09 e4 1d 3d
       0.03639771 -0.020766258 0.0553465 0.03854755
0000d0 0b 43 2c bd 7f 22 46 b7 9c 89 80 bc 0e c0 c2 bb
       -0.042056125 -1.1809751e-05 -0.015690617 -0.005943305
0000e0 57 44 a1 38 08 e4 2c bd aa 1e 13 bc 9b 85 1e 3d
       7.6898075e-05 -0.042209655 -0.008979479 0.038701635
0000f0 45 79 55 3c c6 9e 37 3d 1e 69 3a bd 05 8f 43 3c
       0.013029401 0.044829153 -0.045510404 0.011935954
000100 e9 38 4c b9 be b0 37 bc 21 d3 0f bd 81 d2 b9 bc
       -0.00019476157 -0.011211572 -0.035113458 -0.022683384
000110 ea 1d 1a 3d c3 a1 ef 3c 57 0d 9e 3c 5c 3f 08 3d
       0.037626185 0.029251939 0.01929347 0.03326355
000120 bf 64 a5 3c dc eb 4d bd 3a ad 92 3c 0e 4b ca bc
       0.020189641 -0.05027376 0.017904866 -0.024693992
000130 5b ad 98 3c d4 62 21 bd 32 04 05 3d fa b2 34 3c
       0.01863735 -0.03940089 0.032474704 0.011028999
000140 62 52 9a 3c fd 24 07 3c ee 62 ba 3d b8 65 9e bc
       0.018838111 0.008248565 0.091009006 -0.019335613
000150 03 6c f9 3c 3a a2 26 bc 63 e1 61 bc 41 d5 ca bc
       0.030447012 -0.010170514 -0.013786647 -0.02475989
000160 be 9a eb 3c 7a 4d d8 bc 46 7a 7f bd 06 05 cf bc
       0.02876031 -0.026404131 -0.06237247 -0.02527095
000170 2b 77 6d bd b4 1a fb bb 21 27 11 bb 2a 4a 79 bb
       -0.057974976 -0.0076630954 -0.0022148567 -0.003803859
000180 95 a7 51 bc bf 41 71 bc 34 e9 2d 3d fc 4c 1c bd
       -0.012796302 -0.014725148 0.042458728 -0.038159356
000190 66 a6 07 3d 69 74 74 bd 5f fb 72 3c 5f 7c 11 3d
       0.033117674 -0.05968133 0.014830439 0.035519
0001a0 ef 0e a3 3d 6b 49 2c bc 9c 7c 4b bd 76 69 24 3c
       0.07961833 -0.010515551 -0.049679384 0.0100349095
0001b0 5e 84 51 bd f5 63 5c 3d 5e 0b 92 3c ff e0 42 bd
       -0.051151626 0.053806264 0.017827686 -0.047577854
0001c0 24 f2 bc bc ce a0 cd bc 4b 79 ec 3c cf 0a 99 3b
       -0.02306468 -0.025101092 0.02886643 0.004670478
0001d0 6e 27 54 bd b5 2f 9d 3c aa 8b 89 bd 41 73 18 3d
       -0.051795416 0.019187788 -0.06716092 0.03721929
0001e0 c1 b5 a8 bc 7f 4e 71 bd 87 a0 64 3c b2 cf 4c bd
       -0.02059448 -0.05891275 0.013954288 -0.05000276
0001f0 a6 12 12 3d 31 04 e5 bc 74 c4 7c 38 7b 2d a9 3d
       0.035662316 -0.0279561 6.0264443e-05 0.08260628
000200 97 a2 75 3d 3e 95 e2 3c 53 77 9e 3c 68 b9 e8 3c
       0.05996951 0.027659055 0.019344008 0.028408721
000210 1c 4d ba 3c dd f1 8c bc ab de 0f bc fe 15 d4 bc
       0.022741847 -0.017205173 -0.0087811155 -0.025889393
000220 0f e0 45 3d 67 01 3d 3d 99 5c ca bb b2 45 7e bc
       0.048309382 0.046143916 -0.0061755893 -0.015519546
000230 79 ab 02 bd 86 b0 13 3c 99 cc 6b 3d a8 84 11 3d
       -0.03190181 0.009014254 0.057568166 0.0355269
000240 da b0 d2 3b b8 33 ac 3b 4c fb 00 3c e8 08 76 bc
       0.0064297738 0.005255189 0.007872414 -0.015016772
000250 10 a3 12 bd 5b c6 25 bd 0b 24 34 bd 2b c4 cf 3b
       -0.03580004 -0.04047237 -0.043979686 0.0063405237
000260 4a e0 1b 3d 5f 42 a0 bd 4d 6e 1a bd 80 d5 1e bc
       0.038055696 -0.07825159 -0.037702847 -0.009694457
000270 88 2e d1 3b 00 e6 9b 3a 43 c0 a7 bc 0c b5 5d bd
       0.006383721 0.0011894107 -0.02047742 -0.054127738
000280 45 2a b8 3c 54 c1 34 bd 32 22 b6 bc 78 e0 ee 3c
       0.022481093 -0.044129685 -0.022233102 0.02915977
000290 1d f9 3a 3d ea 9e 90 bd cf fd 97 3d a4 ff f7 bc
       0.04564773 -0.070615605 0.07421457 -0.030273266
0002a0 45 9f 18 3d 2f d9 e3 bc cd 9d a1 bc 75 8b a7 bc
       0.037261266 -0.027813522 -0.019728566 -0.02045224
0002b0 cd 4f 6c 3d 24 3c 47 bd 98 6b 92 bd 6f ff 0c 3d
       0.05769329 -0.04864134 -0.07149428 0.034423288
0002c0 5a 39 06 bc 3b 40 b6 3b b8 b1 b3 3a b2 48 ae 3a
       -0.008192385 0.005561856 0.001370958 0.0013296811
0002d0 3f 17 60 bc a4 eb ea 3b 42 11 0d bd c0 ac 2f 3d
       -0.013677417 0.007169204 -0.034440286 0.042889357
0002e0 78 76 43 3d 1d ab c4 bc 20 ba 28 3c f3 ce 07 3c
       0.047720402 -0.024007374 0.010298282 0.008289087
0002f0 74 c0 19 3d fa b6 21 bd 50 17 c2 bb 4a a4 9e bc
       0.037537053 -0.03948114 -0.005923189 -0.019365449

gru.bias_hh_l0 f4 [192]
000000 a9 56 c5 bc 69 c9 87 bd d2 5c 67 3d 1f bc 5a bd
       -0.024089174 -0.06630213 0.056485005 -0.053402063
000010 b1 7d b6 3c 39 24 4c bd 18 4a 79 3d cd 82 1e 3d
       0.022276731 -0.049839232 0.060861677 0.03869896
000020 f9 af 21 b8 1f c4 80 3c 6e 88 fc 3c a9 19 68 3d
       -3.854928e-05 0.015718518 0.030826773 0.056665096
000030 04 51 86 3b 34 7b 3f bd 9e d1 04 bd 45 a6 64 3d
       0.0040990133 -0.046748355 -0.03242647 0.05582263
000040 83 4e 07 3d 5f 73 43 bb 39 19 fb bc 66 fe 01 3d
       0.03303386 -0.0029823405 -0.030651676 0.031736754
000050 3c f9 61 bd 44 79 6a 3d c2 4a 10 bd c0 a5 3b 3d
       -0.05516933 0.057244554 -0.035227545 0.04581237
000060 91 74 65 3d 1c 1b 6b bd f0 8d 5c bd 03 59 b6 bc
       0.05601937 -0.0573989 -0.0538463 -0.022259241
000070 ea e8 26 3d a5 e8 d4 bb 6c 98 2b 3d a8 fe 3e bd
       0.040749468 -0.00649746 0.041893408 -0.046629578
000080 81 e4 36 bd 73 4d ec 3c fd ef 1e bd 09 e5 2b bd
       -0.044651512 0.028845524 -0.03880309 -0.04196647
000090 98 cd 0e bd f6 21 66 3d e4 c7 78 3c ae d9 3d bd
       -0.03486404 0.05618473 0.015184376 -0.046350174
0000a0 f2 01 59 3d 72 81 92 bb 09 e1 fb 3c c0 12 54 3d
       0.05298037 -0.0044709975 0.030746954 0.051775694
0000b0 4e a8 00 3c 30 4a a4 3c 91 e1 a0 3c e0 75 08 bd
       0.007852627 0.020054907 0.019638808 -0.03331554
0000c0 66 7f d7 3c 23 28 b7 3c 26 78 8c 3c 98 38 54 3d
       0.026305865 0.022358006 0.017147135 0.051811785
0000d0 df 7f 83 3c 7b 41 27 3d 9d 76 61 3d 54 0d 00 bd
       0.016052185 0.04083393 0.05504476 -0.03126271
0000e0 a2 36 cb 3c a9 30 12 3d 46 c6 15 3d 00 69 a8 3b
       0.024806324 0.035690937 0.03656604 0.00513947
0000f0 08 c9 73 3d ba 81 46 3b 26 81 1c bd 55 9a 3b 3d
       0.05951789 0.0030289725 -0.038209103 0.04580148
000100 d5 85 1a 3d 7e ad c1 39 31 7d d3 3c 46 3f 01 bd
       0.03772529 0.0003694109 0.025816532 -0.031554483
000110 05 58 a9 3a 7e fa 20 3d 50 ca 18 bd d1 03 a9 bb
       0.0012919909 0.039301388 -0.037302315 -0.0051579257
000120 cc b4 09 3c 0a e7 62 bd d7 03 f9 3b 7a 93 49 bd
       0.008404922 -0.055396117 0.0075993347 -0.04921291
000130 3f e4 12 3c 0d 98 3d 3b 0c c1 51 bd c8 25 8c bc
       0.008965551 0.002892974 -0.051209494 -0.01710786
000140 0c dd 78 3a df 2e ce 3c d5 0a 9e 3d 4c 1a c9 bc
       0.0009493388 0.025168834 0.0771691 -0.024548672
000150 ae 82 7e bd e0 b1 86 3d 01 37 d3 3c e5 f9 88 3d
       -0.062136345 0.06576896 0.025783064 0.066882886
000160 2b 86 9c 3b b8 ff 52 bd 18 bc 22 3d 23 65 0c 3d
       0.0047767363 -0.051513404 0.03973016 0.03427614
000170 f4 17 b5 bc da c1 5c 3d 89 56 75 3b dd 1d e5 bc
       -0.022106148 0.05389581 0.0037435612 -0.027968341
000180 34 64 33 bd af 4a b9 bc b5 a5 6b 3c b1 6c a7 bc
       -0.043796733 -0.02261862 0.014382769 -0.02043757
000190 4a 3b e1 3c 9b 9e 1e 3c c8 98 78 bd 36 85 82 bd
       0.027494092 0.009681369 -0.06069258 -0.06373064
0001a0 ba 25 8a bc 96 87 b4 3c 53 5a 91 bd 18 ab 02 bd
       -0.016863693 0.022037309 -0.07097306 -0.03190145
0001b0 7c 8f 2f bd d9 5d 19 bd ac e6 ba 3c 79 54 9f bc
       -0.042861447 -0.037443016 0.022815071 -0.01944946
0001c0 b8 3d 24 3d 8b 2a 64 bc ec c2 46 bd b7 0a a5 bd
       0.040097922 -0.013926159 -0.048525736 -0.08058684
0001d0 1c 31 a2 3c b9 75 e1 bc 88 9d 87 3c 1e 1e 17 bd
       0.019798808 -0.027521955 0.016554609 -0.036893956
0001e0 f5 f0 9c 3d a1 7d 2e bd a9 13 a4 bc 2d 6b 90 bc
       0.076631464 -0.042600278 -0.020028906 -0.01762923
0001f0 ac 03 44 3d 6c ae de 3c f4 6d 8d 3c 30 2c 26 bc
       0.047855064 0.02718278 0.017264344 -0.010142371
000200 2e 8c 6c 3c dd 41 b3 bc 8d fb 11 3d 77 4f 2d bd
       0.014437718 -0.021881992 0.03564029 -0.04231211
000210 c1 09 08 39 45 98 ef 3c 52 6c e5 bb 7c 03 a6 3b
       0.00012973604 0.029247412 -0.007001438 0.0050663333
000220 8b a4 20 3a b9 fd 85 bc 56 6b 1a bd 8d ae f9 3a
       0.00061280344 -0.016356336 -0.03770002 0.0019049213
000230 dd a5 ce bc d2 ae 3b 3d 06 5e 85 bc c9 7f 53 3d
       -0.025225574 0.04582102 -0.016280185 0.051635537
000240 ff 1d 07 bc b9 b7 5e bb 63 e3 e7 bc 84 0f eb bc
       -0.008246898 -0.003398402 -0.028306669 -0.028693922
000250 de 84 f6 bc a7 37 60 3d e9 14 2f bd 98 48 d7 bc
       -0.030092653 0.054740574 -0.04274455 -0.026279733
000260 60 d8 85 bc 09 74 25 bd 02 3f 3c 3d ad 26 9b 3d
       -0.016338527 -0.040393863 0.045958526 0.07575736
000270 90 c8 b4 bc 7d 80 bf 3c 48 a5 0e bd 04 08 2f 3d
       -0.022068292 0.023376698 -0.034825593 0.042732254
000280 e5 9d b7 3c 5b 94 4f bc cf 79 85 3c 77 e3 2d 3c
       0.022414157 -0.012669648 0.016293434 0.010613314
000290 d8 92 c3 bc ce eb 20 bc 6c 00 eb bc df 55 d1 3b
       -0.023873731 -0.009821845 -0.028686725 0.0063884105
0002a0 25 b9 c9 bb 01 5c 26 bd 87 be 9f bc 42 9c 2a bd
       -0.006156104 -0.040615086 -0.01950003 -0.041652925
0002b0 a0 11 20 bc 1b 00 5b 3c bb 0e 4e bd 38 6c 3f 3b
       -0.009769827 0.013366724 -0.050307017 0.002920879
0002c0 02 24 c8 bb b2 d4 ec 3c 79 5b 2f bd e6 6c c4 bc
       -0.006107808 0.028910015 -0.042811844 -0.023977708
0002d0 92 5b 53 bd ee 45 26 3c 81 fc 65 3d 55 ec 13 bc
       -0.051601 0.0101485085 0.05614901 -0.009028514
0002e0 e4 64 ed 3c ad 9b c5 bc 4c 9a 65 3d 9f 58 84 3c
       0.028978772 -0.024122084 0.056055352 0.01615554
0002f0 95 2f 35 bd d5 96 25 3d fe c2 25 3d f0 60 f5 3c
       -0.04423483 0.040427048 0.040469162 0.02995345

gru.weight_ih_l1 f4 [192, 64]
000000 39 ea 55 3d 7e 6b 3d 3d 7b a7 b9 3d 5f 1f 76 bc
       0.052225325 0.04624509 0.090651475 -0.015022128
000010 45 09 09 3d d6 37 13 bd dd 4d e6 3c 5d 4e 85 bd
       0.033456106 -0.03594192 0.0281133 -0.06509087
000020 77 f9 74 3d f9 af 57 bb b0 25 33 3c 18 94 c6 bc
       0.05980822 -0.0032911284 0.010934278 -0.024240538
000030 33 45 4c 3b a5 0c 33 bd 2d 42 b4 3d ef 57 b5 3c
       0.0031169176 -0.04371323 0.088016845 0.022136657
000040 5e df 5f bc 4c 78 ce bd 81 02 a6 3b 81 40 c2 bb
       -0.013664095 -0.100815386 0.0050662165 -0.0059280996
000050 e6 42 5c bd 45 30 26 bd b7 7a 01 bd 29 5d f0 bc
       -0.053774737 -0.040573377 -0.03161117 -0.029341297
000060 83 70 36 bd 88 fb 61 bd 12 14 23 3d a8 94 b4 3d
       -0.044540893 -0.05517152 0.039814062 0.088174164
000070 60 e3 ac 3d 5d f8 1e bc cf 13 27 3d 33 bf 27 bd
       0.08441806 -0.009702769 0.040790375 -0.040953826
000080 94 05 26 bd fa 38 d2 bc 5a 9e cf 3c af d3 57 bc
       -0.040532663 -0.025661934 0.025344063 -0.013173028
000090 2c 0c b6 3d 47 d5 75 bc 48 e8 20 3b 27 ac 90 3d
       0.0888904 -0.015004463 0.0024552513 0.070640855
0000a0 28 a1 94 3c 66 cf 1c bd 02 54 af bc b3 95 8f bd
       0.018143252 -0.038283728 -0.021402363 -0.07010975
0000b0 a0 18 ed 3c 94 e4 10 3d 6b 9f e8 bc cd 68 20 bd
       0.028942406 0.03537424 -0.028396329 -0.039162446
0000c0 33 34 9f bd 99 e7 05 bc 50 92 7b 3d c6 c8 44 bc
       -0.07773628 -0.008172893 0.06141883 -0.012010759
0000d0 be d4 97 bc 8c 90 b2 bd 1a d9 bd 3c cd f6 a8 3c
       -0.01853406 -0.087189764 0.023174811 0.020625496
0000e0 52 c7 3b 3d 69 87 72 3b 0f 9a f8 bb b6 23 99 3d
       0.045844384 0.003700698 -0.0075867246 0.074775144
0000f0 5b 0e f8 b9 9f 6f 9a bc bb 6b 3f 3b 8b 7a f2 3b
       -0.00047312942 -0.018852053 0.00292085 0.007399862
000100 bc 43 10 bd af ba bd bc 1b cd 37 bd 07 80 64 bd
       -0.035220847 -0.023160307 -0.04487334 -0.05578616
000110 55 9e b2 3c 39 1c 38 3d 15 51 03 3b 1c b6 58 bc
       0.021804014 0.04494879 0.0020037342 -0.013227012
000120 da 5e 85 3c a3 70 80 bb 13 2b 07 b9 7a f4 1d 3b
       0.01628058 -0.0039196773 -0.0001289065 0.0024102018
000130 17 21 5b 3c 53 ba ae bc 82 b5 8a bd 1b 5f b7 bc
       0.013374588 -0.02132908 -0.06772901 -0.022384217
000140 d9 d5 a6 bd e6 cd 87 3c 8d f0 1a 3d 61 e8 da 3c
       -0.08146257 0.016577672 0.037827063 0.026722135
000150 ba e5 d3 3c d9 c8 0c 3d d1 e5 bf ba e0 a0 6c bc
       0.025866378 0.03437123 -0.0014640634 -0.014442652
000160 ad 4d 8d 3d ca be 1d bc a2 1b 7c 3c 32 62 cd bc
       0.06899581 -0.009628007 0.015387448 -0.025071237
000170 3c 53 ca 3c 56 ae 4c bd bd 11 92 3c 10 94 fd 3b
       0.024697892 -0.049970947 0.017830724 0.0077385977
000180 86 c1 18 3c 72 02 ba bc 4c 7f 8e 3d 5a c8 01 3d
       0.009323483 -0.022706244 0.06957874 0.03168521
000190 7b 99 3b 3c 85 f0 ac 3d 03 14 1f 3d 63 b9 b7 bd
       0.011450167 0.08444313 0.038837444 -0.089709066
0001a0 a2 d6 54 bd 39 3f 30 bc 9e a9 d0 3c 2d b3 93 3d
       -0.051962502 -0.010757261 0.025471505 0.072119094
0001b0 ef ad e0 3c 62 92 ae bc 41 a8 3c 3d f6 eb a1 3d
       0.027426688 -0.021310035 0.046058897 0.07906334
0001c0 01 27 f5 bc ea 9d 01 3d af 0d 46 bd b6 35 2a 3b
       -0.029925825 0.03164474 -0.048352893 0.0025971956
0001d0 e8 21 4d bd eb 2f a4 3d 06 af ed bc 1c 2a 5e 3d
       -0.050081164 0.08016952 -0.029014122 0.054239377
0001e0 cc 7c f6 bc 11 af 92 3d 85 e6 bd bb 8a 88 57 ba
       -0.030088805 0.071622975 -0.0057953023 -0.0008221945
0001f0 30 37 09 3c 8e db 7e 3d 85 6c 5f 3d ff af 10 3d
       0.008374974 0.062221102 0.05454685 0.035324093
000200 14 d6 17 bd 11 f9 28 3d c5 11 73 3c 74 65 4c 3d
       -0.037069395 0.041253153 0.01483578 0.04990144
000210 69 df 8d 3d d4 9b c7 3c bd 58 04 3c 0e c6 72 bd
       0.06927378 0.024366297 0.0080777975 -0.05927091
000220 57 a6 b2 3c 7c ef 4c bd 89 af 87 bc 1f 3a 1e 3c
       0.021807833 -0.050033078 -0.016563194 0.009657412
000230 82 da bd 3b ba 7b 60 3c 2f 19 2f 3c 37 c4 79 bc
       0.0057938704 0.013701374 0.010687157 -0.015244535
000240 50 33 b5 ba 2b 7d 87 bc 33 eb b7 bc ba d6 a9 bb
       -0.0013824496 -0.016539177 -0.022451019 -0.005183068
000250 57 94 19 3d b2 45 ac bc e3 ee 78 3b 66 01 2c bd
       0.037494984 -0.021029327 0.0037984184 -0.04199352
000260 dd 0e 0b bc 16 04 d0 3c f7 63 e5 bc c0 0e 9e 3d
       -0.00848743 0.025392573 -0.028001769 0.07717657
000270 4d 69 8b 3c 83 28 07 bd 59 3d e2 bc 06 02 03 bc
       0.017017985 -0.03299762 -0.027617143 -0.007996088
000280 37 a8 a0 bd f4 f2 a9 3c 85 71 03 3d 30 18 8f 3c
       -0.078445844 0.020745732 0.032090683 0.017467588
000290 a0 1d 82 3d 1d 57 49 bd ec 5b 2f bd bf 61 a7 3b
       0.06353307 -0.049155343 -0.042812273 0.005108088
0002a0 c1 f4 31 3d f7 c6 3f 3b c1 a7 ee bb 02 f0 43 3c
       0.043446306 0.002926288 -0.0072831814 0.011959078
0002b0 d7 68 eb bc d3 f7 7a bc 0c 5e 60 3d 10 f7 16 3d
       -0.028736515 -0.015317875 0.05477719 0.03685671
0002c0 3f 4f 89 bc 46 86 a4 3d 0e fd 67 3d a4 fa 2c bc
       -0.01676142 0.08033423 0.056637816 -0.010557804
0002d0 0a cd a5 3d 2b 2d ee bb a0 cd 7a 3d 59 f1 0a bd
       0.08095749 -0.007268568 0.061231256 -0.033921573
0002e0 5c dd 02 bc 8b 9c 33 bb c8 97 8a bd 02 89 15 3d
       -0.0079873465 -0.002740654 -0.06767231 0.036507614
0002f0 42 c9 78 3d 17 89 1a bd 93 b7 3a bd 9c aa 6e 3b
       0.06073881 -0.037728395 -0.045585226 0.003641761
000300 6f 1f 5a bd ce 53 2b 3d a2 63 49 3c df 4d 0a bd
       -0.053252634 0.04182797 0.012291821 -0.03376567
000310 ca f1 5a 3c 6c 8e 9e bb 96 23 e6 3b 5e dc 44 bc
       0.013363311 -0.0048387554 0.007023285 -0.01201543
000320 d9 71 a1 bc 27 07 4b bd 2e bb 7b 3c 37 2d 42 3d
       -0.019707607 -0.049567368 0.015364451 0.0474064
000330 5b ec 82 3c de e9 fa 3c 62 5a 38 bd 75 71 02 3d
       0.015981844 0.030629095 -0.04500807 0.031846482
000340 d9 c7 8b bd a3 74 81 bc d1 62 62 3c 9f 53 6e 3c
       -0.06825227 -0.015802687 0.013817505 0.014546304
000350 7e 58 bd bb 40 b4 01 3c 44 8c 14 bd 63 18 61 bb
       -0.0057783714 0.00791651 -0.03626658 -0.003434681
000360 09 ba 2c bd e9 28 f7 3b ac 3c 37 bd 6f 18 79 bd
       -0.042169604 0.0075427187 -0.044735596 -0.060814317
000370 ba aa 18 3d d7 88 4d 3c 3d 7b c5 3c 63 c5 c0 3c
       0.037272193 0.012544832 0.024106616 0.023531621
000380 49 c2 7b 3d 8b 2c d8 bc 07 1f 35 3d 1a 54 44 bd
       0.06146458 -0.026388427 0.044219043 -0.047931768
000390 f6 b0 37 bc 31 c5 5e 3c 27 ce 51 bd cf d9 99 3c
       -0.011211624 0.013596819 -0.051221993 0.018780617
0003a0 c5 37 84 bc ac c6 f7 b9 70 7c 14 bd 9d ef eb 3c
       -0.016139874 -0.00047259533 -0.036251485 0.02880078
0003b0 e6 8d 2d 3c 93 24 0b 3c 69 04 00 b9 59 99 86 3c
       0.010592913 0.008492607 -0.00012208674 0.016430544
0003c0 dc ae 37 3d 7e 91 09 3d d7 2a 56 bd b1 2a 80 3d
       0.044844493 0.033586018 -0.05228695 0.06258143
0003d0 3a ab 1e bc c1 a9 2e bd 01 77 28 bd ce 15 36 3d
       -0.009684378 -0.04264236 -0.041129116 0.04445439
0003e0 91 b5 3d 3d 70 58 f1 bc 66 fc 5a 3d a2 1f 81 bd
       0.046315733 -0.029461116 0.053463362 -0.063048616
0003f0 36 e1 06 3b f0 68 b8 3c 60 52 70 3d c3 eb e7 3c
       0.0020581014 0.022510976 0.05867231 0.028310662

gru.weight_hh_l1 f4 [192, 64]
000000 92 7c 32 3d a2 85 3f bd 0d 48 74 bc ef 4b 96 bc
       0.04357583 -0.0467583 -0.014909756 -0.018346755
000010 a9 58 99 3d 3e 28 b3 3d 47 ed bc 3d f9 f3 62 3d
       0.07487614 0.0874791 0.092249446 0.05540845
000020 43 d1 0c ba a4 00 c5 3d 66 25 9e 3d 0d 1c c6 bb
       -0.00053717586 0.09619263 0.07721977 -0.0060458244
000030 a1 f7 3c 3d 3f e8 91 bd ab 03 be bc 9d a2 b9 3d
       0.046134595 -0.071243756 -0.023195108 0.09064219
000040 a9 9f 70 bc d9 e4 02 3d b1 2e 0a 3c 64 0e 66 bc
       -0.014686503 0.031956527 0.008433984 -0.014041517
000050 48 07 b2 bc be 8b f7 bc bb 14 58 3d e4 3d 3d bd
       -0.021731988 -0.030218001 0.052754145 -0.0462016
000060 c8 68 48 3d c0 67 e3 3c e3 0c 0f 3d 41 b5 c9 3d
       0.048928052 0.027759433 0.0349244 0.098490246
000070 3c e8 e3 3c 0e 69 65 3d 09 be 0b 3d d6 59 d8 bc
       0.027820699 0.05600839 0.03411678 -0.026410025
000080 95 e2 1c bd 0e 99 9c bc d9 c5 0d bd 04 49 65 bd
       -0.038302023 -0.01911595 -0.03461251 -0.055977836
000090 d0 f9 b3 3b 42 f0 ab 3c d9 73 34 3d a9 f6 6c bd
       0.0054924265 0.020988587 0.044055793 -0.05785242
0000a0 26 bc b9 3c 83 18 dd 3c 01 88 4f 3d c4 5e cd 3a
       0.022672724 0.026989227 0.050666813 0.0015668501
0000b0 ac 5c 22 bd 92 e5 dd bc 1d 6d 7b 3c fb a8 8f 3d
       -0.03963916 -0.027087007 0.015345839 0.07014652
0000c0 ee e2 03 bb c6 c6 43 bd 42 c2 bb bb a6 22 93 bc
       -0.0020124274 -0.047796987 -0.0057299444 -0.017960858
0000d0 8f d6 ba 3c d1 e2 82 3d 47 93 54 bd 13 c9 62 3d
       0.022807388 0.06390918 -0.051898267 0.05536754
0000e0 3f 15 2d bd b0 16 ff bc 87 bc 04 3d 67 80 37 3c
       -0.04225659 -0.031138748 0.032406356 0.011200047
0000f0 c7 f3 63 3a 7d 05 ad 3c 55 9a e9 bc a8 77 57 3d
       0.00086956884 0.021120781 -0.028515974 0.052604347
000100 d5 51 22 bd 39 91 bd 3c ab 21 3d 3d 47 43 20 bd
       -0.039628822 0.023140537 0.046174686 -0.03912666
000110 fb 01 7e bd 6a d6 08 bd 41 dc 3b bc 80 26 f6 bc
       -0.062013607 -0.033407606 -0.011466087 -0.030047655
000120 0d 3a 47 bd ae 24 4e 39 c4 9f 17 3d 82 4c 8a bd
       -0.048639346 0.00019659355 0.0370176 -0.06752874
000130 65 91 43 bd 57 7d 33 3d c9 e8 4a 3d 00 08 8f bc
       -0.04774608 0.043820705 0.049538407 -0.01745987
000140 01 21 53 3d 37 f4 fb 3c 53 9e c9 3c 05 36 a7 bd
       0.051545147 0.0307561 0.024611628 -0.081646
000150 61 38 50 3d 62 bb f3 3b ab af 88 bd 37 6d 93 bd
       0.050835017 0.0074381093 -0.06674131 -0.071985655
000160 e3 b8 1c bd aa c0 e3 bc 92 fd 45 3d fb ca 4f bc
       -0.03826226 -0.02780183 0.048337527 -0.012682672
000170 98 c8 c2 bd 79 fe 83 bc 65 89 10 bd cb 9c 72 3d
       -0.095109165 -0.016112553 -0.03528728 0.05923156
000180 47 05 e5 3c c7 ec 47 3d 06 01 3e bb c0 a0 7f bc
       0.027956618 0.048809793 -0.002899231 -0.015602291
000190 42 18 b2 bd 77 4a 09 3d c0 31 08 3d 4a f2 b3 3d
       -0.08696033 0.03351828 0.03325057 0.08786447
0001a0 cb b2 ca bb a9 5d 46 bd f2 55 b1 bb 7c 32 eb bc
       -0.0061858646 -0.048429165 -0.005411857 -0.028710596
0001b0 ec 80 14 3d 65 22 91 bd 90 72 ea 3c f4 47 c2 bc
       0.036255762 -0.07086638 0.02861908 -0.02371595
0001c0 15 45 65 3c b4 0d d8 3c c2 bd ab bc c2 d0 40 3d
       0.013993521 0.026373722 -0.020964507 0.047074087
0001d0 5c d5 82 bd 45 fa e4 bc 07 86 9b 3d 77 48 85 bd
       -0.06388351 -0.027951369 0.07593923 -0.06507962
0001e0 c4 3f 2f 3c 19 de c8 3d 9f b3 85 3c 1f d2 4b bd
       0.010696355 0.09807987 0.016321002 -0.049760934
0001f0 c9 8f a7 3d 3b b9 08 bd de 09 ba 3d ec 41 29 bd
       0.08181722 -0.033379775 0.09083913 -0.041322634
000200 b4 cf 84 3c 43 1d db 3c ee c4 ce 3b de 73 54 bd
       0.016212322 0.026747352 0.006310097 -0.051868312
000210 21 04 ce bc 02 13 43 3d 97 e2 fb bc 72 45 8c 3d
       -0.025148453 0.04762555 -0.030747695 0.06849183
000220 e8 eb 0d 3d 47 76 71 bc 72 fd 3e bc 44 2e a1 3c
       0.034648806 -0.014737672 -0.011657106 0.019675381
000230 9d 4f 5c 3d 5c 2c 87 bd ee 5a 84 bc 94 ba 88 3d
       0.053786863 -0.06600258 -0.01615664 0.06676212
000240 87 7a 11 bd e5 86 15 3d fd 05 e5 bc 48 5d 09 3d
       -0.03551724 0.0365056 -0.027956957 0.033536226
000250 cf c2 88 bd b0 19 2b bd 10 64 a0 3d 20 46 ff bc
       -0.06677782 -0.041772544 0.078315854 -0.031161368
000260 c1 6e 58 3d db 5a ec bc e8 52 7c 3d b7 62 bc bc
       0.05284 -0.028851917 0.061602503 -0.02299629
000270 7b 67 22 bc ec 04 76 3d 38 e2 11 3d 58 41 5a bb
       -0.009912367 0.060063288 0.03561613 -0.0033303108
000280 b0 3a 60 bd 49 68 36 3c 26 36 24 3d 7c 70 e0 bc
       -0.05474347 0.011133262 0.040090702 -0.027397387
000290 b8 91 39 3d c6 65 34 bd b4 26 5b 3a 1d e5 a1 bd
       0.045304984 -0.04404237 0.0008359954 -0.07905028
0002a0 52 53 44 3c 1e d6 6a 3b a8 52 76 bb a0 3e 81 3d
       0.011982756 0.003583319 -0.0037585888 0.06310773
0002b0 5f 2a ad 3c 8a e3 38 3d 40 2c 47 3b 1f 1c a9 3d
       0.021138368 0.045138873 0.0030391365 0.08257317
0002c0 43 2a 3a 3d cb 20 94 3c 61 2b bc 3c 10 f7 58 bd
       0.04545046 0.018082043 0.022969903 -0.052969992
0002d0 18 af 37 3c b8 3b a3 3d 69 bf 9d bc 84 e7 a2 3d
       0.011211179 0.07970375 -0.01925631 0.07954314
0002e0 42 39 a6 bc c8 83 35 bd 04 41 19 ba 99 e9 48 bc
       -0.020290975 -0.04431513 -0.0005846175 -0.012262725
0002f0 3e 32 10 bd a3 bd a4 bc b3 f2 c9 3c 7e d7 2c 3d
       -0.035204165 -0.020109957 0.02465186 0.042197697
000300 6c 35 f1 bc 23 4b a0 bc 91 39 60 bc a9 9b e4 3c
       -0.029444419 -0.019567078 -0.0136856 0.027906256
000310 31 29 e6 3c 01 5f 58 bd 7f 5e d4 bc 27 8a 4a 3b
       0.028095813 -0.052824978 -0.025923965 0.00309051
000320 4d 0b 8c 3d a8 04 d7 3a 0a 4b 8a bc 05 ee 8b bd
       0.06838093 0.0016404586 -0.016881485 -0.06832508
000330 f2 45 64 3b be 68 9c 3c 3c b8 28 3c 2d b8 22 3d
       0.003483173 0.019092914 0.010297831 0.039726425
000340 60 e6 2e bd 68 f3 6a bc bb 4d 0c bd 86 30 1d 3d
       -0.04270017 -0.014340259 -0.034253817 0.038376354
000350 30 bf 78 3d 99 cd a2 3c 11 3d 7e bd 80 25 fe 3c
       0.060729206 0.019873427 -0.062069956 0.03102374
000360 40 7b 5d 3d 9e 26 40 bd b6 22 2a bd 5e 88 09 3d
       0.05407262 -0.04691183 -0.04153701 0.033577316
000370 2a 3e 42 bc f1 e7 30 bd 85 2a 82 3c db c1 41 bd
       -0.011855641 -0.043189947 0.015889416 -0.047304016
000380 7c ab eb bc 4f fc 19 3d 11 04 56 3d 79 6a 6d bd
       -0.028768294 0.037594136 0.05224997 -0.05796287
000390 34 32 a0 bc ac b3 26 3d 5d 84 63 3d 14 fa e8 3b
       -0.019555189 0.040698692 0.055546153 0.0071098898
0003a0 0d 21 be bc 37 5f 17 3d c5 b1 0c 3d f6 cc 4c 3c
       -0.02320912 0.03695604 0.03434922 0.012500038
0003b0 22 c3 5c 3d 55 cc 7d bd fc b2 ab bc dc 3b 23 bc
       0.05389703 -0.061962444 -0.02095937 -0.009963002
0003c0 07 36 05 3d c6 a1 19 bd 32 0c 0b 3d 7b 92 47 3d
       0.032522228 -0.037507795 0.033947177 0.04872368
0003d0 5c 66 f7 bb 46 85 61 bc fb 10 12 3d 94 83 40 3d
       -0.007550044 -0.013764685 0.035660725 0.047000483
0003e0 29 a5 49 3d f7 9e 82 3d 48 a6 80 3b 65 f7 a8 bc
       0.049229775 0.063779764 0.0039260723 -0.02062578
0003f0 35 a8 bb bb 1c ab cb bc b7 5b 36 bd 86 e4 82 bc
       -0.005726839 -0.024861865 -0.04452106 -0.01597811

gru.bias_ih_l1 f4 [192]
000000 90 29 c3 3c 8e 34 e8 bc e3 77 89 3d ca 1f 85 3c
       0.02382353 -0.028345373 0.0671232 0.01625051
000010 3c dd 80 3c 67 cf b1 bc 14 f2 b7 3c d0 71 c8 3d
       0.015730493 -0.021705342 0.022454299 0.09787333
000020 8d da 70 bc 74 fa 8e 3d b2 ac ba bc b1 93 6f bc
       -0.014700544 0.06981364 -0.022787426 -0.014622615
000030 5c e7 a7 3b 49 58 da 3c 7d 85 7d bc ba a6 c7 3c
       0.0051240157 0.026653426 -0.015473721 0.024371494
000040 a9 0a 5c 3c 71 ca 73 3d 2c 7f ef 3a df b0 91 3d
       0.013430276 0.059519235 0.0018272153 0.071138136
000050 e0 e8 05 bb 20 50 9f 3d 66 ad 41 3b fd b0 d2 3b
       -0.0020432994 0.077789545 0.0029552816 0.00642979
000060 8a be 8d bc 7a cf 18 bd 51 e0 72 3c 91 cc bc bd
       -0.01730277 -0.03730724 0.014823989 -0.092187054
000070 e2 c8 8c 3d 29 be 93 3d bd ec d4 bc a0 86 94 3c
       0.06874253 0.072140045 -0.025991792 0.0181306
000080 db 9a a8 3d 53 5f 21 bc 65 c3 5f bd f9 9b b1 bd
       0.08232661 -0.009849387 -0.054629702 -0.086723275
000090 b9 c0 ae 3c 25 da 46 bd 0d 6c 60 bd bc 24 92 3d
       0.021332132 -0.048547883 -0.054790545 0.07135913
0000a0 33 3e 6a bd 15 92 8e bd 43 b4 55 bb 00 84 28 3c
       -0.057188224 -0.06961457 -0.0032608665 0.0102853775
0000b0 1e 45 af 3d ef 02 e4 3c 83 eb 6e bd 1b 1e 25 3c
       0.08558105 0.02783343 -0.05833007 0.0100779785
0000c0 b9 44 03 3e 22 41 90 bc 6d fa 1e 3d 48 2f 39 3d
       0.12819184 -0.017609183 0.038813043 0.045211107
0000d0 58 6c 45 bd 66 78 89 bb 7c 87 af bc 26 da 94 bb
       -0.048199028 -0.004195261 -0.021426909 -0.004542607
0000e0 ae 0e 98 bc f5 89 0e 3d c6 99 f2 3d 89 c5 b2 bb
       -0.018561687 0.034799535 0.11845736 -0.005455677
0000f0 af a7 48 bd 71 ac 57 3d ea df 9a 3d 90 27 48 3d
       -0.04898804 0.052654687 0.075622395 0.048865855
000100 b7 52 88 bd 11 37 3a bd b3 02 57 3e fb a4 8e 3e
       -0.066564016 -0.04546267 0.20997123 0.27860245
000110 cc 25 94 bd 27 53 0d be 36 6e 0b bc 93 d3 36 bd
       -0.07233772 -0.13801251 -0.008510163 -0.044635367
000120 74 55 95 3e b0 ec a1 3c 84 0a 91 3e 13 6a 1e bc
       0.29166758 0.019766182 0.28328335 -0.009668845
000130 da 5e 7a 3c 0f aa 8f bd 13 78 85 3e 4d c7 0d bc
       0.015281403 -0.07014858 0.26068172 -0.008653474
000140 75 4b 2b 3d 1d 81 80 3e 69 60 a1 3e 13 40 28 bd
       0.04182001 0.25098506 0.31518868 -0.04107673
000150 da d0 68 bd 8c d1 fe 3a c0 da a6 3c e7 25 a8 3e
       -0.0568398 0.0019441112 0.02036798 0.32841417
000160 37 f7 8f 3e d3 a3 00 be be 9e 96 3e a7 09 d4 bd
       0.28118297 -0.12562494 0.29417986 -0.103534035
000170 71 4a 17 bd 08 ef 34 bd 13 22 81 3e e6 8b 0e 3e
       -0.036936227 -0.04417327 0.2522131 0.13920555
000180 fe 67 b8 bd 90 db 9c 3e 7d 9d 87 3e 6f 17 9b 3e
       -0.0900421 0.30636263 0.26487342 0.30291316
000190 90 f0 e2 bd 67 9d 83 3e 23 3a 7f 3e ec 5e 1c bd
       -0.1108104 0.25706026 0.24924521 -0.038176462
0001a0 37 a0 75 3d d3 29 98 3e 69 73 1f 3d 91 6b 73 3e
       0.059967246 0.2971941 0.038928423 0.23771502
0001b0 49 ab ae bd c7 9d d6 bd 8d 81 20 3c 1b 4e d7 3c
       -0.08528764 -0.104793124 0.009796512 0.02628236
0001c0 60 9f 7b 3e c0 ab d0 bb b8 ca 1f 3c aa db c8 bc
       0.24572515 -0.0063681304 0.009752922 -0.024518806
0001d0 df 28 8a 3e d9 42 db bd 98 b2 8a 3c 49 c1 f2 bc
       0.26984307 -0.107061096 0.016930863 -0.029633181
0001e0 59 39 84 bd 8a a9 81 bd 72 ad 76 3e d1 ee 12 bd
       -0.06456251 -0.06331165 0.24089602 -0.035872284
0001f0 b3 26 94 3c 48 2e 9c bd 07 96 c7 bd cb 80 92 bd
       0.01808486 -0.07626015 -0.09745412 -0.071534716
000200 3e 2e 8c 3d c0 10 56 be 99 70 83 3c 52 cf 10 3d
       0.068447575 -0.20904827 0.016044902 0.035353966
000210 ff de 05 3e 70 8a 10 3e d4 54 63 3e 83 66 96 3d
       0.13073348 0.1411531 0.22200328 0.07343771
000220 54 49 cb 3c 94 ff 77 3d 04 df 21 3d 6c 33 a4 3d
       0.024815239 0.060546473 0.039519325 0.080176204
000230 a6 44 ef 3d be 61 9a bd 90 72 b9 3c 0f c3 7a 3d
       0.116830155 -0.07538174 0.022637635 0.06122118
000240 08 b3 1d be 84 55 74 3b ed 50 2c 3d 9a 99 35 3d
       -0.15400326 0.0037282417 0.042069364 0.04433594
000250 66 75 0c be 20 59 35 bd 86 e9 cb 3c 59 34 4f bd
       -0.13716659 -0.04427445 0.024891626 -0.050587032
000260 87 b4 ed bc 49 3b 50 3e 17 58 a8 bc 6d 62 35 3e
       -0.029016746 0.20335115 -0.020549817 0.17713328
000270 ff 32 fb 3d 79 82 96 3d 69 93 91 bd 34 af 00 bc
       0.12265586 0.073491044 -0.071081944 -0.007854272
000280 3c 31 02 be 87 b1 67 bd 63 26 61 3b af d1 37 3d
       -0.12714094 -0.056565788 0.0034355156 0.044877704
000290 48 6a 28 3e fb 38 1f 3c 9f 4b 05 3d ca 37 12 be
       0.16446793 0.009718175 0.03254282 -0.14279094
0002a0 c4 9d c2 3d 30 d7 06 3d a7 e7 ac 3d 05 49 10 bd
       0.09502748 0.032920063 0.08442622 -0.035225887
0002b0 0a cc dc bd da bb a3 3d 1f 8a 12 3e dc 24 38 3e
       -0.10781105 0.07994814 0.14310502 0.1798281
0002c0 bd 4e 8c bc 95 38 0e be b9 fe 4c 3e 95 09 ea bc
       -0.01712739 -0.13888772 0.20019044 -0.028569022
0002d0 d4 07 0c bd ec 75 19 3d ba 68 1d be 37 38 20 3e
       -0.034187153 0.037465975 -0.15371981 0.15646444
0002e0 78 88 b6 bd 48 2c 88 bc 79 e3 80 3c 04 d7 3d 3e
       -0.08912748 -0.016622677 0.015733467 0.18539053
0002f0 0e 58 42 be 71 44 15 3d ad 54 1a bd f8 95 f2 3d
       -0.18978903 0.036442224 -0.03767841 0.118450105

gru.bias_hh_l1 f4 [192]
000000 ce bf 1b 3d 08 fb 77 bd c9 ee ed bc d4 7a 4e 3c
       0.038024716 -0.060542136 -0.029044526 0.012602527
000010 8c b9 55 bd 7d 4c 85 bd ab b4 ed ba 78 e5 5c bb
       -0.052178904 -0.065087296 -0.0018135508 -0.003370611
000020 01 54 cd bc d5 36 bb 3d 92 d8 ba bc e2 eb 6e 3c
       -0.02506447 0.09141318 -0.022808347 0.014582606
000030 f5 36 3d 3d 31 7a 8f 3c 6b 10 af bd 9f fb 5e 3d
       0.04619499 0.01751432 -0.08548053 0.054439183
000040 12 dc 79 bc 6e 0c 12 3d 0d 53 6a bd 66 e9 a2 3c
       -0.015250223 0.035656385 -0.05720811 0.019886684
000050 87 05 0f 3c 26 41 0c 3e 16 b4 ad 3c d7 9e 7e bb
       0.008729345 0.13696727 0.021204036 -0.0038852
000060 fb d7 92 bd c6 31 2f bd 95 07 02 bd 2a 81 84 bd
       -0.07170101 -0.042772077 -0.031745512 -0.064699486
000070 30 b7 5f 3c 3d 92 8b 3c 1b 12 3e 3d 8e db 25 3d
       0.013654515 0.017037505 0.046403985 0.040492587
000080 e7 e8 a5 3b 51 95 6b bd 77 64 4f bd 00 7a 6d bd
       0.0050631645 -0.057515446 -0.05063292 -0.057977676
000090 34 c7 4c bc 01 d2 a2 3c 7b 45 8b bd da b2 a9 3d
       -0.012498666 0.019875528 -0.06800362 0.08286066
0000a0 1b 23 ec bb df e7 40 bd ae 4f d6 3c e3 de 8c 3d
       -0.0072063333 -0.04709613 0.026161041 0.0687845
0000b0 c2 b9 00 3d 89 82 3e 3c e8 f9 81 bd fb c6 69 bd
       0.031427152 0.011627802 -0.06346494 -0.05707453
0000c0 e1 5e 6e 3d cc 12 b4 3c 6e e8 8d bc b2 7a 65 3d
       0.058195952 0.02198162 -0.017322745 0.056025214
0000d0 14 b1 c7 bc 6b 7d 85 3b 37 62 5c bd 64 d7 9d 3c
       -0.02437643 0.004073789 -0.053804602 0.019267745
0000e0 68 fc a1 3d c5 b4 0f 3d 6b 04 8f 3d 08 e1 a8 bc
       0.07909471 0.035084505 0.069832645 -0.020615116
0000f0 56 61 69 ba 02 dc 6e 3b 32 e5 c8 3d ee 80 bd bb
       -0.0008902749 0.0036447053 0.098093405 -0.005783192
000100 5c 73 94 3c 0e 81 d1 bd 59 a3 73 3e 1e 70 7e 3e
       0.018121414 -0.10229693 0.23792781 0.24847457
000110 40 ad f0 bd 86 b1 f1 bd c8 50 b4 bd 4c 9f 4e bd
       -0.11751795 -0.11801438 -0.0880447 -0.050444886
000120 21 62 a2 3e ed d8 c0 bd 80 07 85 3e cf cf b1 bd
       0.3171549 -0.09416375 0.25982285 -0.086822145
000130 5d e3 37 bc f7 d0 f1 bc 38 65 7f 3e 83 0d 91 bd
       -0.011223641 -0.029518588 0.24940956 -0.07082655
000140 21 76 ef 3b 21 5c 88 3e 66 5f 78 3e ec e6 1a bd
       0.0073077832 0.2663279 0.24255142 -0.03781788
000150 36 3d 5f bd f4 fd 4b bd 43 30 3e bd 39 97 8e 3e
       -0.054501735 -0.049802735 -0.046432745 0.2784975
000160 d1 9e 8d 3e 53 dc 4b bd a8 0a 6f 3e ec ea 02 be
       0.2766023 -0.049770664 0.23343909 -0.12784928
000170 bb 98 8e bd 16 3e 3d bb 72 24 a3 3e f6 d2 07 3e
       -0.06962725 -0.0028876117 0.31863743 0.13264069
000180 e6 8b 8b bd 1a 94 85 3e 44 eb 94 3e dc ed 69 3e
       -0.06813793 0.26089555 0.29085743 0.22844642
000190 84 d0 2d bd f3 4b 83 3e 8a f4 7f 3e 0d 90 e0 bd
       -0.042435184 0.25643882 0.24995628 -0.109649755
0001a0 37 e3 4d 3c 1a b8 99 3e b7 1e 48 3d a4 3e 5d 3e
       0.012566379 0.3002327 0.048857417 0.21605927
0001b0 2b de 37 bd c3 67 23 bd be ca 24 3c e8 60 bc 3c
       -0.04488961 -0.039893877 0.010058103 0.022995427
0001c0 f1 ef 40 3e 52 c7 d7 bd b4 fd b7 3c 39 bc 3f bd
       0.1884153 -0.10536064 0.022459842 -0.046810362
0001d0 bf 91 80 3e 0d 54 eb bc e5 74 5c bc 29 ec 53 bd
       0.25111195 -0.028726602 -0.013455604 -0.05173889
0001e0 9e b4 40 3b 3f 60 56 bb 29 b3 8f 3e 5c 6d bc bc
       0.0029404531 -0.0032711176 0.28066376 -0.023001365
0001f0 e5 81 a7 3c e0 bf 4c bd 13 ab b2 bd 5e 24 06 bd
       0.02044768 -0.049987674 -0.08724036 -0.032749526
000200 f8 44 0c 3e dc de 93 3b d8 80 18 3d 31 e6 30 3d
       0.13698184 0.004512651 0.03723225 0.043188278
000210 d0 8a 85 3c c4 ad ed bc d0 6c f4 bb 03 d6 f0 3d
       0.016301543 -0.029013522 -0.0074592605 0.117595695
000220 d2 a5 1f 3d 67 92 0c 3e c7 a9 60 3d 32 4b 93 3d
       0.038976498 0.13727723 0.054849412 0.07192077
000230 49 fd 04 3e ba 61 df bd df 22 6b bc 53 d5 8a 3d
       0.12987246 -0.10907312 -0.014351576 0.067789696
000240 e3 30 79 3c a6 5c 56 bd b8 92 2f bc 26 f2 b5 3d
       0.015209409 -0.05233445 -0.010716133 0.08884077
000250 8b 93 b7 bd e0 ee c0 3c 3c 29 04 3e f2 1d 5d 3b
       -0.089636885 0.023551404 0.12906355 0.0033739773
000260 3c d5 45 3d 35 44 a7 bc de 6e 5a 3c 03 04 08 3c
       0.04829906 -0.020418266 0.013332097 0.008301738
000270 49 81 88 3d 36 70 dd 3d 49 3d 1f bd a4 1d 7b 3c
       0.06665284 0.10812418 -0.038876805 0.015326891
000280 8a 9d 1d be fe 1e ca bc c0 8a f2 bc ea 08 d4 3c
       -0.15392128 -0.024672981 -0.029607177 0.025883157
000290 4c a7 0f 3c f4 b2 65 bd 9b 9e 13 3d c5 ff 91 bd
       0.008767914 -0.056078866 0.03603993 -0.07128862
0002a0 37 9a 06 bd 75 04 12 bd b8 29 b1 3d c0 64 b8 3c
       -0.032861914 -0.03564878 0.08650535 0.022508979
0002b0 7d a5 b5 bd 71 ee e3 3d 2f b2 96 3b 56 c8 90 3c
       -0.08869455 0.111294635 0.004598878 0.017673653
0002c0 8e e6 23 3d 9e 2e 47 bd dd ef fa bc 8b b1 02 be
       0.040014796 -0.048628442 -0.030631954 -0.1276304
0002d0 c8 bf 57 3c 0a a6 e7 3d 35 bd a0 3c 9b 18 42 3d
       0.013168283 0.11310966 0.019621471 0.047386747
0002e0 7e ac 1c be f0 48 87 bd 56 84 b4 3c 4f 2f 36 bd
       -0.15300176 -0.066057086 0.022035759 -0.04447871
0002f0 67 b8 13 bd 9c fb a1 3d 80 81 12 be 75 07 d7 3d
       -0.03606453 0.07909319 -0.14307213 0.10499469
